data-en.pth (torch, 5727 bytes, 6 tensors)

l1.weight f4 [8, 63]
00000000: 3b42 43bd d81f 4ebe 5e24 a3be 87e6 02bf
00000010: c9be d03d a17a 083f 84e0 e93e 3787 8dbe
00000020: e5ac a43e 6d98 13be 73ff 11bd 90b8 e63c
00000030: adf1 cbbe e4f7 d33e 3db1 03be 9ce6 7e3e
00000040: 515e 783e 3104 3fbe 1f91 21be af27 7a3e
00000050: c0ff 1dbe edd1 2b3e 486d 80be 7d43 1cbf
00000060: 1262 923e 5bfd 17be 6790 34be f34a 083e
00000070: 2d2a 163f 13e7 eebd d842 3e3f d850 863c
00000080: 6d39 c83e da75 dabc 4ee2 303f 6244 6d3e
00000090: 296c 933f c309 9abe 1c6c 2cbe ac90 213f
000000a0: a32d be3c f88f 7bbc 6ead 8dbe 7cbd 21be
000000b0: 6ba3 e43e 4ced 333f dd76 dd3d d3ce 6ebd
000000c0: 73f8 8b3f 1347 0b3e 4523 963e b996 cf3e
000000d0: 4a5f 053f 5925 03bd 8841 37be cfda f63e
000000e0: 167c 8d3e 9933 003f d5f2 30bd 27ff b03e
000000f0: 572c 74be df44 e03e bf7c a6be ac29 d8bd
00000100: 3bc7 dabd 959e b4bd 5de3 b5bd afab 1bbd
00000110: 4206 903d 3c5d 7ebd e822 263d 8b24 f5bd
00000120: 4c46 083d 0e27 54bd e007 45bc 26a1 ec3d
00000130: 9225 493d 5c86 86bd b899 f3bd cf9d 90bd
00000140: 5619 b6bd e881 593d 7e34 f23d 001d 113b
00000150: 9242 78bd 040f 9dbd 5e60 8fbd 4c6c a8bc
00000160: 5b4c a73d d09e 6b3c 654a 913d bea2 9b3d
00000170: f549 abbd 24f3 8ebd f08c 7c3c d696 54bd
00000180: e81f 1f3d ab2b 7ebd 76ad 323c d4f8 1e3d
00000190: dd31 cabd ba1c 66bd 3a82 05bd fe28 ebbd
000001a0: 6643 af3d e6c9 35bd a2c7 c33d 5e78 86bd
000001b0: 005a daba 748a d53d 80ae c23a bcf9 593d
000001c0: 58dd 1cbc 4ac8 843d eca5 28bd f58e f2bd
000001d0: dc20 823d 0011 703b cc65 91bd c090 bdbb
000001e0: d0d6 723c bdd7 b8bd b65c cd3d 6a36 d53d
000001f0: 18ee dfbc 0469 d6bd aa55 843d 9958 c33e
00000200: 52b2 e93e 9a08 343f c5e6 583d 375c 2a3e
00000210: 8ac1 e23d c3ca acbe bfc3 5dbd f8b3 ec3e
00000220: a586 f8be 1df8 fb3e fc86 023d 4a72 efbd
00000230: 2d1b 85bd ddc0 ea3d ad41 8fbe a99f 1fbe
00000240: 2964 e93c ae0d b83e c60b b23c 9ada 4cbe
00000250: 59c6 8f3e c2ef 413f fad7 8b3e b442 89bd
00000260: 3769 443f 6c8e 28bd e703 e4ba 29a1 6d3e
00000270: d5f6 993e 1be7 91be 1677 0fbe 11dc 7ebe
00000280: 9bf0 e03d 7fc9 8a3d 8635 9c3d 7264 433f
00000290: 87e5 bf3e ab00 fe3d 075b 9dbe d78e e03e
000002a0: 5716 54be 762e 9bbd 2f8b 72be 351e 223e
000002b0: d660 343d a05c cabe ae74 0cbf f006 17be
000002c0: 217e a93d c52f 98be a9df 083f 4edb d6be
000002d0: 909a 0d3f fb91 21be 0869 02bd d37d 59be
000002e0: 8ab4 b63d 3659 1bbe 3051 293f ef42 3f3f
000002f0: 8205 303f 47f3 933e 3350 c8bc 7327 163e
00000300: 8de4 7ebe 3146 e33e 8ed3 b43e e90e 9c3e
00000310: db17 433f 669f e83e e045 7f3e 148c debe
00000320: 07b9 0dbf 24eb 4a3e f7ee 353f 47f5 9f3e
00000330: 0f43 13be de93 d93e 11f9 f83e 1505 783e
00000340: 2405 40bc f294 9c3e 8d88 1abe 6882 3cbd
00000350: cb5d a73e fe13 29be 758d 413f 2650 89be
00000360: 0b7a 0e3f 5aca aa3e 2bf1 e33e 4a30 6e3e
00000370: e0fc f4be 1fc2 d6be 65c8 f03e c295 8b3e
00000380: 9f51 d83e e542 cb3e 5045 9cbe 9e33 b03d
00000390: c088 713e 51d5 383f bbc2 10bf 0c73 1c3f
000003a0: 1723 c13e bc30 1d3e 6bae 333e 694e b23e
000003b0: 0a68 0c3f 43fa 183f 6174 6cbb 1d7a 8f3e
000003c0: 7f2e f93e bfaf e1be 8524 2c3f bdb2 913d
000003d0: 2a4e 1c3f da01 dfbd 9ffc c53e 0b58 3b3e
000003e0: eca9 b53e 215e 89be f1d8 83bd 2d7a 8dbe
000003f0: e5d3 9d3e bf60 9f3e 07d0 0cbe 4f1a 5e3e
-0.047670584 -0.20129335 -0.31863683 -0.51133007 0.101926394 0.53312117 0.45679104 -0.27642223
0.32163158 -0.14413615 -0.035644006 0.028164178 -0.3983282 0.41400063 -0.1286058 0.24892658
0.24254729 -0.18653943 -0.15778016 0.244292 -0.15429592 0.16779299 -0.25083375 -0.6104048
0.28590447 -0.14842741 -0.1763321 0.13309841 0.58658105 -0.11665168 0.74320745 0.016395971
0.39106312 -0.026667524 0.69095314 0.23170617 1.1517383 -0.30085573 -0.16838115 0.63111377
0.02321512 -0.015354149 -0.2767138 -0.15794939 0.44655928 0.7028396 0.10813687 -0.05830271
1.0935196 0.13601331 0.29323784 0.4054468 0.52098525 -0.03201804 -0.17896092 0.48213813
0.27633733 0.5007873 -0.043200333 0.34569666 -0.2384504 0.43802544 -0.3251705 -0.10554823
-0.106825314 -0.088193096 -0.08881257 -0.038005527 0.070324436 -0.062100634 0.040560633 -0.11969861
0.033270165 -0.051795058 -0.012025803 0.11554174 0.049108095 -0.06568596 -0.11894554 -0.070613496
-0.08891551 0.053102404 0.11826418 0.002214253 -0.06061036 -0.0766888 -0.070008025 -0.020559452
0.081688605 0.014381126 0.07094268 0.075994 -0.083637156 -0.06979969 0.0154144615 -0.05190166
0.038848788 -0.062053364 0.010905614 0.03881152 -0.09872792 -0.05617974 -0.032594897 -0.11482428
0.08557777 -0.044382 0.09559561 -0.06565927 -0.0016658902 0.104267985 0.001485303 0.05321668
-0.009574257 0.064835146 -0.04117386 -0.11843673 0.06353924 0.0036631227 -0.07099494 -0.005785078
0.014821723 -0.09025524 0.10027449 0.10410769 -0.027335212 -0.10469249 0.064616516 0.38153532
0.4564386 0.70325625 0.052954454 0.1663674 0.11072071 -0.33748445 -0.054141756 0.46231055
-0.48540226 0.49212733 0.031867012 -0.11691721 -0.06499324 0.11462567 -0.27979794 -0.1558825
0.028490143 0.35947937 0.02173413 -0.20005265 0.28081015 0.75756466 0.27313215 -0.06702176
0.76723045 -0.04115145 -0.0017396183 0.23206009 0.3007113 -0.28496632 -0.14010271 -0.24888636
0.10983392 0.067767136 0.07627396 0.7632514 0.37479803 0.12402471 -0.3073351 0.43858978
-0.20711647 -0.07577221 -0.23685907 0.15831836 0.044037662 -0.39523792 -0.5486554 -0.1474874
0.0827601 -0.29723945 0.5346628 -0.4196419 0.5531397 -0.15778343 -0.031838447 -0.21239404
0.08921154 -0.1517075 0.6613951 0.7471151 0.68758404 0.28896543 -0.024452304 0.14663486
-0.24891873 0.4438949 0.35317653 0.30480126 0.76208276 0.4543411 0.24928999 -0.43466246
-0.55360454 0.19816262 0.71067756 0.3124182 -0.1438105 0.42495626 0.48627523 0.24220689
-0.011719976 0.30582386 -0.15091152 -0.046022803 0.32688746 -0.16511533 0.7560647 -0.2681896
0.5565497 0.33357507 0.44519934 0.23260608 -0.47849178 -0.41944978 0.4702789 0.27262694
0.42249772 0.39699474 -0.3052163 0.08603595 0.23587322 0.72200495 -0.56547135 0.6111305
0.37722084 0.15350622 0.17547004 0.34825447 0.5484625 0.5975687 -0.003608011 0.28022853
0.48668286 -0.44079396 0.67243224 0.0711417 0.6105677 -0.10889025 0.38669297 0.18295304
0.35481203 -0.26829627 -0.06437863 -0.27632275 0.30825725 0.311285 -0.13751231 0.21689723

l1.bias f4 [8]
00000000: ab3e 203f c70b 01be 516a 803f 85e8 143f
00000010: 580a 4a3f 0fd3 3a3f 0cfc 873f cc37 453f
0.62595624 -0.12602149 1.0032445 0.58167297 0.78922033 0.729783 1.0623794 0.77038264

l2.weight f4 [8, 8]
00000000: af43 4cbf 671b 54be f4bd 0d3f 8f00 82bf
00000010: 2eb8 493f 6aae 67bf c370 d63e 8453 b43d
00000020: 8ed3 5e3f f1b0 ed3d 044c 4bbe 6d69 f2be
00000030: a23a c03f 31de 3fbe 76c6 423f 0187 7dbe
00000040: 4eef 89bf 4053 e63b 3693 8c3f a360 b83e
00000050: 92dc b53d d447 c13e 7d29 2ebf 6c83 903e
00000060: 626d 663f 5d5e 01be f8f7 d4bc 0a7c 8a3f
00000070: 06c7 5a3f 2a32 93be 7415 613e bc6e 4ebf
00000080: d216 8e3e ff11 f63d 3aa2 af3f cea3 45bf
00000090: 47eb 98bd 1614 913e 7615 c23f 5470 8a3f
000000a0: cc8c 1a3e 4729 5dbe 04fe 82be fbad a5be
000000b0: c271 453c 25e7 1d3e 6a60 acbd 6dfb a3bc
000000c0: f7de 48bf df09 8d3e b331 45bf 710e 773f
000000d0: 2c55 953f f544 993f 054e 26be 2ec3 7e3f
000000e0: b1da 013f 4843 1e3d 8e32 8d3e 13ea 5a3f
000000f0: 4616 00bf 4161 34bf 74ec 38bf e48b 28bf
-0.79790777 -0.20713578 0.5536797 -1.015642 0.7879666 -0.9050051 0.41882905 0.08804992
0.87041557 0.116060145 -0.19853216 -0.47346058 1.5017893 -0.18737103 0.7608408 -0.24758531
-1.0776155 0.007028967 1.0982425 0.36011228 0.08879961 0.37750113 -0.68032056 0.28225267
0.90010655 -0.12633653 -0.025997147 1.0819104 0.85459936 -0.2874921 0.2198084 -0.8063772
0.27751786 0.12015151 1.3721383 -0.7720307 -0.074667506 0.28335637 1.5162799 1.081553
0.15092772 -0.21597777 -0.25584424 -0.323593 0.012051048 0.15420206 -0.08416827 -0.02001735
-0.7846522 0.27546594 -0.7702896 0.9650641 1.1666617 1.1974169 -0.162407 0.9951657
0.5072432 0.038638383 0.27577633 0.8551342 -0.50033987 -0.704609 -0.722358 -0.65838456

l2.bias f4 [8]
00000000: 9f71 34be 2876 be3d ea1c 21bd 54d8 493e
00000010: 30f7 043f 2a07 95be 6942 113f c20b aa3e
-0.17621468 0.0929988 -0.039334215 0.19711429 0.5193968 -0.29107028 0.5674196 0.33212095

l3.weight f4 [8, 8]
00000000: a89e dabe 9a12 24bd 8190 93bd 1dd8 213f
00000010: 9fa5 9abf 138a e2bd dbb8 2fbf a01b 7f3f
00000020: 82a0 05bf f602 6fbf 48ec 243f a50a a4be
00000030: 7bf4 85bf a2cd 4b3e c1a6 413f b302 2abf
00000040: d3b1 ab3f c728 753e 65d9 99bd 6d28 3fbf
00000050: 6fca 9a3a 5a07 5cbe eb0d fbbe 38b9 15bf
00000060: d7dd 10bf a1e1 7c3e 516e d2bf 5e42 5cbf
00000070: 633b 88bd 440a 6ebe f00a e13e cdb6 9cbe
00000080: bc71 79bf 2c51 313f f74e 0ac0 7bd1 ff3e
00000090: 8094 36bd 1ee7 09bd fdf0 20bf 14d4 efbe
000000a0: d9b7 52bf f92c c1bf 447c ca3e f7e6 ccbf
000000b0: 3389 b43e eaed b33d 498a 043f 91b4 07bf
000000c0: ee67 34bf 08d7 af3e c2a1 c3bf 4325 aa3e
000000d0: fd8c b3bf f5d5 b33d ece2 b63e 11e7 07bf
000000e0: 5dd2 c8bf 2a26 c23c 07fd f4bf 0f50 56bf
000000f0: c153 3d3f 4cb0 973e db44 b3bf 0a90 16be
-0.4269917 -0.040056802 -0.07205296 0.6322039 -1.2081794 -0.11061492 -0.6864144 0.9965153
-0.5219804 -0.93363893 0.64423037 -0.3203937 -1.0465235 0.19902661 0.7564507 -0.6641037
1.3413643 0.23941337 -0.07512168 -0.7467106 0.0011809597 -0.2148718 -0.49034056 -0.58485746
-0.565885 0.24695446 -1.6439916 -0.8603877 -0.06651952 -0.23246104 0.43953657 -0.30608216
-0.9743917 0.69264483 -2.1610696 0.49964508 -0.044575214 -0.033667676 -0.6286772 -0.4684149
-0.8231178 -1.509185 0.39547932 -1.6007985 0.35260925 0.08785613 0.51773506 -0.530099
-0.70471084 0.34343743 -1.528374 0.33231553 -1.4027401 0.087810434 0.35720003 -0.53086954
-1.5689198 0.023699839 -1.9139718 -0.8371591 0.73955923 0.2962669 -1.4005388 -0.14703384

l3.bias f4 [8]
00000000: 24f1 be3e 4a7a 3cbc 34d6 29be 6c96 28bf
00000010: bedd 9cbe 0ce4 e13e 416b 07bd 5c24 093f
0.3729335 -0.011503765 -0.16585618 -0.65854526 -0.30637926 0.44119298 -0.03306127 0.53571105
