data-tr.pth (torch, 6175 bytes, 6 tensors)

l1.weight f4 [8, 68]
00000000: 92e2 1dbe 352e c73e 85a8 c93e 756b debd
00000010: 80df c2bd 39b2 18bf f226 df3e 08a2 5fbe
00000020: e1c1 4ebe a460 0e3f 98b8 99be dd20 593e
00000030: 2e9a 18bf eb37 90be ed47 b5bd 7c8f f13e
00000040: 10cc 663e 549f 2abe 49d0 dc3e bc35 e03e
00000050: 38ea 963c adf4 97be db77 2dbe 88b2 5dbd
00000060: 1df6 febd 1a88 cf3e 01c5 423f f089 2c3f
00000070: d4d8 023f c686 093f 5db9 2d3f 4e14 adbe
00000080: 63aa b0be d797 f13e ebe5 823e ab14 183f
00000090: 5252 0e3f a698 b63e bda3 2cbe 5b02 923e
000000a0: 02ae db3e 26c6 173f cc2b 9aba e34b 5ebe
000000b0: 0e46 223e ec77 103f b235 ef3d e47d 513e
000000c0: 0af1 943e e18a 7ebe 2ba2 253f 0472 f23e
000000d0: cabc 193f bb48 84be b50b adbe 2210 10be
000000e0: 1bcf 8cbe 2002 a1be 108d e5bb 78bb b13e
000000f0: 6496 663f 802d a5bc a5bc 5ebe 3928 1cbe
00000100: f798 563e 278c 28be 10cf 563e 6bff 993e
00000110: de24 fc3e 5acf 15be 1f4c 09be f918 0fbe
00000120: cc61 9b3e 8308 3c3f b131 c63e 86eb 9cbe
00000130: 4465 683e 827f cebe a0a5 e93e 8052 b9bd
00000140: f3a4 5c3f 330e 233f 95a7 3a3e 6afe ce3e
00000150: b7ab cf3e fdfa cc3e 1b0b 183e 873f b3be
00000160: e523 6b3e 5108 063f b19f be3e 2f7b 9a3e
00000170: 3fc6 cc3e d680 e53e 4127 fd3e 2a04 9d3e
00000180: bb66 653e 3a82 4c3e 2e5d 563e cf02 fa3e
00000190: 29d4 c93e 53f5 06bf 0c2f 87be b779 403f
000001a0: 955a 403e cdf7 c43e de84 9a3e f7ff 30be
000001b0: c882 7f3e 3c5a 373f c372 313f 84e3 7abe
000001c0: 3192 5f3e 302b 793e 06d2 913e 97aa c6bd
000001d0: 2c71 6fbe 09b4 1b3f 5939 fb3e 4e86 723e
000001e0: de98 1a3f b7df 093f d5b8 fe3e b936 a6be
000001f0: 061c f4bd 618d 273f d8eb 9e3e 7511 39be
00000200: ee2e 2cbf d404 983e ecbd 013f 0bb4 39be
00000210: 3ad4 87be 512a 9a3e 3fba 2dbd 1ed8 663e
00000220: 4531 03be 001a 00be 6f92 d03d 4f1f e7bd
00000230: 3cdb f6bd 15ce dbbd 8b80 8bbc 45e1 efbd
00000240: d91c 22bd de33 0b3d 1cf8 71bd 8c9b 8fbd
00000250: d419 94bd 1f98 f5bd d4da a6bd 8819 943d
00000260: f055 1f3d cfaa 06bd 40b7 b0bd a5c6 98bd
00000270: 600c 9b3c e266 f03c 668b 843d 574c 5a3d
00000280: d5ed 31bd c901 b2bd 68ba 13bc ee23 c6bd
00000290: 1773 bbbd f08b 7abc cf83 5abd a912 a03d
000002a0: c482 6c3d ff5b 47bd 3b4e 063d 905a b33c
000002b0: c4a5 c9bc 7eb9 7f3d 5701 603c c19f 493d
000002c0: 2901 c1bc 53b1 93bd 725e d83a 90e4 433c
000002d0: 55ab edbc 28a2 d2bd 9821 313d 4efa c9bd
000002e0: b81a 193c b494 183d 4a3a 9ebd 90ec c23d
000002f0: 602b 35bc f732 90bd 7e33 403d 2a16 a93d
00000300: aa86 f2bd 2e56 b3bd 8586 d7bd 40da 353c
00000310: dfff 95bc 93a0 a4bd e5ca 8bbd 28fe 0abc
00000320: df24 aabd 4644 8dbc 9cbc bbbd f426 3c3d
00000330: bbf1 98be 495c 73be 5528 793e 3f25 8c3e
00000340: ea5f 693e d680 3e3f 1093 ea3e b6f1 dc3e
00000350: 574f a1be d9ae c8bd f37f 9dbe f139 80be
00000360: 4db0 0d3f b6cf 0a3f 232a 193e 18e8 003f
00000370: c222 cabd 5780 fc3e 0ef2 ecbd 77bf 5e3b
00000380: b007 933e 3214 963e dd4b 18be ac66 d9bd
00000390: 33f6 98be 503d 133f 9a89 78be 9eb2 b4be
000003a0: 1435 8abe 33c1 80be 5547 59be 5806 bbbe
000003b0: 9bf9 d13e c90c 2abe 0ccf 1bbe 58e0 433f
000003c0: 64a7 6bbe ceae bd3e 67c2 5dbe 7ca3 50bd
000003d0: 9b1b 02be 1a95 433f 582f 12be f754 7a3e
000003e0: ed9d edbd 1052 6abe 8270 6c3e 5aef 4cbe
000003f0: c91b b3be 1502 cebe f6c5 6bbe 1592 87be
-0.15418461 0.3890244 0.39386383 -0.108603396 -0.095152855 -0.59646946 0.435844 -0.21839154
-0.20191146 0.5561621 -0.30023646 0.21203943 -0.5961026 -0.28167662 -0.088516094 0.47179782
0.22538781 -0.16662341 0.4312766 0.43790996 0.018422231 -0.2967886 -0.16940252 -0.05412534
-0.12449286 0.40533525 0.76081854 0.67397976 0.51112103 0.5372127 0.67860967 -0.33804554
-0.34504995 0.47186157 0.25566038 0.59406537 0.5559436 0.35663337 -0.16859336 0.28517422
0.42906195 0.59286726 -0.001176232 -0.21708636 0.15847036 0.56432986 0.116801634 0.2045818
0.29090148 -0.24857666 0.64700574 0.47352612 0.60053694 -0.2583674 -0.33797994 -0.14068654
-0.2750176 -0.31446934 -0.0070053414 0.3471334 0.9007323 -0.020163298 -0.2175165 -0.15249719
0.20956789 -0.16459714 0.20977426 0.3007768 0.49246877 -0.1462988 -0.13407944 -0.1397437
0.3034805 0.7345049 0.38709787 -0.3064844 0.2269488 -0.40331656 0.45634174 -0.09048939
0.8618919 0.6369354 0.1822799 0.40428478 0.40560696 0.4003524 0.14847986 -0.35009405
0.22962911 0.5235644 0.3723121 0.30172107 0.39995 0.44824857 0.4944401 0.3066724
0.2240247 0.19971552 0.20933983 0.48830268 0.39419678 -0.52718085 -0.2640308 0.7518572
0.18784554 0.38470307 0.30179495 -0.17285143 0.24952233 0.7162206 0.6931574 -0.24500853
0.21833111 0.24332881 0.28480548 -0.09700506 -0.23383015 0.60821587 0.4906719 0.23684046
0.60389507 0.53856987 0.4975039 -0.32463625 -0.119194075 0.654501 0.3103931 -0.18073066
-0.6725911 0.29691184 0.5068042 -0.18135087 -0.26529104 0.3011041 -0.042413946 0.2254338
-0.12811764 -0.12509918 0.1018418 -0.112852685 -0.120535344 -0.107326664 -0.017029068 -0.11712889
-0.039578293 0.03398501 -0.059074506 -0.0701209 -0.07231489 -0.119919054 -0.08147207 0.07231432
0.038900316 -0.03287774 -0.08628702 -0.074597634 0.0189268 0.029345933 0.06471901 0.05329546
-0.043439705 -0.08691747 -0.009016611 -0.09674822 -0.09152811 -0.015292153 -0.05334836 0.07816059
0.057741895 -0.04867172 0.03278945 0.02189377 -0.024615176 0.06243276 0.013672194 0.04922462
-0.023560124 -0.07211556 0.0016507639 0.011956349 -0.029012362 -0.10284835 0.043244928 -0.09862195
0.009344749 0.03725119 -0.077259615 0.09517777 -0.011057705 -0.07040971 0.046924107 0.082561806
-0.118420914 -0.08756672 -0.105237044 0.011099398 -0.018310485 -0.080384396 -0.068258084 -0.008483447
-0.08307814 -0.01724447 -0.09166834 0.045935586 -0.29871926 -0.23765673 0.24331792 0.27372167
0.22790495 0.7441534 0.45815325 0.4315316 -0.31505844 -0.097989745 -0.3076168 -0.25044206
0.5534714 0.5422319 0.1495748 0.50354147 -0.09869911 0.49316666 -0.11569606 0.0033988634
0.28716803 0.29312283 -0.1487269 -0.10615286 -0.29875335 0.5751543 -0.24271241 -0.35292524
-0.2699362 -0.251474 -0.21218617 -0.36528277 0.41010746 -0.1660644 -0.15215701 0.76514196
-0.23013073 0.37047428 -0.2165619 -0.05093716 -0.12705843 0.76399386 -0.14275873 0.24446474
-0.116023876 -0.22882867 0.23089793 -0.2001318 -0.34982136 -0.40235963 -0.23024735 -0.2647864

l1.bias f4 [8]
00000000: ba9d 183f ee77 7c3f 8e32 12bd 8070 533f
00000010: 3a49 433f 96e7 3b3f 5b3a 363f 14c7 133f
0.5961567 0.986205 -0.035692744 0.82593536 0.7628361 0.7340025 0.71182793 0.57725644

l2.weight f4 [8, 8]
00000000: 12e0 85be 7121 c63f 701e b039 a549 c83f
00000010: 70b5 08bf d7e9 85be 7d4d 1a3f e7ca 2d3e
00000020: 8411 643f 7255 51be e234 143d 9a37 f13e
00000030: d1ae 443f 2645 703f fd28 b43d 362a a5bf
00000040: c6fc af3f 90f8 f73d 68f8 a9bd 1b34 a1bd
00000050: c73b 3ebe 5f1b a43f 489e 753f 7f5f 97be
00000060: b612 c4be bede 073f e149 5bbe dae5 2e3f
00000070: 35e2 883f 5a0c c9be 9dbc 8a3f 727c 59bf
00000080: 7827 a0be a436 c53f 8e53 fdbd 3ae2 79bd
00000090: 0e83 d7be d35d 333d 343c 9a3f 9632 923f
000000a0: 4bd9 b1be f0e0 5a3e 6c64 dfbd 21fe 4ebe
000000b0: dd62 a33f 0b5f 613f 3c88 41bf 6fe8 8d3e
000000c0: 022c 00be e7d4 07be d6f0 233e 2a6c 3a3e
000000d0: 2c85 94bd d087 263d 28ff 7b3d 80d5 a0be
000000e0: aa9e 4d3e c455 563f 3018 99be f403 1fbf
000000f0: 7646 833e ec8d 893f 5f79 a7bf 7fc3 453f
-0.26147515 1.5478956 0.00033592014 1.5647475 -0.5340185 -0.26154968 0.6027449 0.16971932
0.89089227 -0.20442751 0.036183245 0.47112733 0.7682925 0.9385551 0.087968804 -1.2903507
1.3749015 0.121079564 -0.08299333 -0.078712665 -0.18577491 1.2820853 0.95944643 -0.29565045
-0.38295525 0.5307425 -0.21414901 0.68319476 1.0694033 -0.39267236 1.083881 -0.84955513
-0.31280112 1.54073 -0.123694524 -0.061006762 -0.42092174 0.04379065 1.2049623 1.1421688
-0.34736094 0.2137487 -0.10907826 -0.2021413 1.2764546 0.8803565 -0.755985 0.27716395
-0.12516788 -0.1326481 0.1600984 0.18205324 -0.07251963 0.040656865 0.061522633 -0.31412888
0.20080057 0.8372462 -0.29901266 -0.62115407 0.25639695 1.0746436 -1.3083915 0.7725143

l2.bias f4 [8]
00000000: 7d56 323f bcbb d33e d57a 7f3e 39cd 093e
00000010: 8409 cd3e f3bb cd3e 82b0 aebe cf8c 383f
0.6966322 0.41354167 0.249492 0.13457192 0.40046322 0.40182456 -0.3411904 0.72089857

l3.weight f4 [8, 8]
00000000: 16c1 a4bd 3a31 8bbf 0d70 3c3f 0bf6 cabf
00000010: 5e33 003f 2a61 7bbf 123b 43be 1795 ba3b
00000020: 2ebd 0a3f e9f8 91bf e60e a8bf 58df d6bf
00000030: 636a ba3e 40a1 083b 5f9a 8c3e 2a7e 843e
00000040: f0ec 94bd 0bc8 953e faec a9bf ceb7 533f
00000050: 0c15 88bf 5946 103f 2630 87be d3ef 32bf
00000060: a246 53bf 8244 70bf fb6d 0bbf 5386 07bf
00000070: a6b4 cb3e 09b8 7b3f be06 2e3e b6c2 483f
00000080: 5037 143f cc46 dabf 672c dcbe 0e50 b53e
00000090: 5e42 af3e 406f 9fbf 518b 843e 44ad 30bf
000000a0: ac42 ccbf 2f9b dc3e 6fba cd3e 39f8 e23e
000000b0: 967b f3be 8bbf 973b d793 63be 30eb 4ebf
000000c0: 34a1 be3e 995f ac3e a9bd 273e 6d2e e3bd
000000d0: 10f7 afbe d5d6 ccbe 256e a23e 5163 3cbe
000000e0: cdc7 87bf 525c 1a3f 5a21 c13e 098c bbbf
000000f0: b09e 5ebf f5ca c43e ec9e 973d 67ed 263f
-0.08044641 -1.0874398 0.73608476 -1.5856336 0.5007838 -0.98195136 -0.19065502 0.0056940424
0.54194915 -1.1404086 -1.3129547 -1.6786909 0.36409292 0.0020848066 0.27461526 0.25877506
-0.07271755 0.29254183 -1.3275445 0.8270234 -1.0631423 0.5635734 -0.26403922 -0.6989719
-0.8252965 -0.93854535 -0.5446469 -0.5293934 0.3978626 0.9832769 0.1699476 0.78422105
0.578969 -1.7052855 -0.43002626 0.3541264 0.34230322 -1.2455826 0.2588754 -0.6901438
-1.5957847 0.43087146 0.401813 0.44330004 -0.47555226 0.004630988 -0.22224365 -0.8082762
0.37232363 0.33666685 0.16380943 -0.110928394 -0.3436818 -0.40007654 0.3172466 -0.18397261
-1.0607849 0.6029712 0.37720758 -1.465211 -0.8696089 0.38436094 0.07403359 0.65206

l3.bias f4 [8]
00000000: db4d 5bbe 485e d13c bd42 eebd a204 3fbe
00000010: 034e 833e 999b 2dbe 3bde a0be 2887 063d
-0.21416418 0.025557652 -0.11633823 -0.18654111 0.25645456 -0.16953887 -0.31419548 0.03284374
